model_srcnn.pt (torch, 83589 bytes, 6 tensors)

layers.0.weight f4 [64, 3, 9, 9]
0	0xbd4a18cd	-0.049340058
1	0xbc693a9a	-0.014235163
2	0x3c16157d	0.009160397
3	0x3c471431	0.01215081
4	0xbd5d318f	-0.05400234
5	0x3cfb1b8d	0.030652786
6	0xbd484600	-0.048894882
7	0xbca8630a	-0.020555038
8	0x3d287582	0.04112769
9	0x3d16280f	0.036659297
10	0xbc6dee71	-0.014522181
11	0x3d4371cc	0.047715947
12	0xbd1640e1	-0.036682967
13	0xbb1f1a7f	-0.0024277268
14	0xbc6ce83a	-0.014459664
15	0xbca518b4	-0.02015338
16	0x3d6d9938	0.05800745
17	0x3cc07e56	0.023497742
18	0x3c4cac59	0.012492263
19	0xbbc969df	-0.006146654
20	0x3d290c45	0.041271467
21	0x3a91f459	0.0011135443
22	0x3d05d256	0.032671295
23	0xbd12a008	-0.03579715
24	0x3c130db7	0.008975438
25	0x3d6aca69	0.05732194
26	0x3cac56e1	0.02103752
27	0xbcd3c69b	-0.025851538
28	0xbd1b0ea0	-0.037855744
29	0xbd51113e	-0.051041834
30	0xbc13040b	-0.008973132
31	0x3a4d405c	0.00078297197
32	0xbd8a3661	-0.06748653
33	0x3d12e6d7	0.035864677
34	0xbd0efbdf	-0.03490817
35	0xbd487fd7	-0.048950043
36	0xbc3166fe	-0.010827778
37	0xbd7ee73c	-0.06223224
38	0xbcbca2b2	-0.023026798
39	0x3c9516cb	0.018199345
40	0xbc3b7639	-0.011441761
41	0x3ceadeac	0.028670631
42	0xbd4bb07e	-0.049728863
43	0x3d11d96c	0.03560774
44	0x3c90faec	0.017697774
45	0xbb8c783a	-0.004286793
46	0xbd261adc	-0.04055296
47	0xbd3fb6d8	-0.046805233
48	0xbcf21b1c	-0.029553942
49	0xbc9ed179	-0.019386994
50	0x3d41b359	0.04729018
51	0xbcaed305	-0.021340856
52	0x3cc80ebc	0.024421088
53	0xbd01013d	-0.03149532
54	0x3d48f21c	0.04905902
55	0xbd88c875	-0.06678859
56	0xbc762e52	-0.015025692
57	0x3c6d46fc	0.014482256
58	0x3d414f8f	0.047195014
59	0x3d3a8b1d	0.045542825
60	0x3b0ac7ee	0.0021176296
61	0x3d5117c3	0.05104805
62	0x3d07b9cd	0.033136178
63	0x3c9ff6ec	0.019526921
64	0xbd33517d	-0.043778885
65	0x3d2331b6	0.03984233
66	0x3d5048be	0.050850622
67	0x3d0f777c	0.03502606
68	0x3d5e9b9c	0.05434762
69	0xbd80efe9	-0.06295759
70	0x3cba0402	0.02270699
71	0x3d77f3a7	0.0605351
72	0xbc6675c0	-0.01406616
73	0xbcfb66cf	-0.030688671
74	0xbd824456	-0.0636069
75	0xbd14b659	-0.036306713
76	0x3ca4765a	0.020075966
77	0xbcc78d4f	-0.024359373
78	0xbd31ed4a	-0.043439187
79	0xbbd9f2c7	-0.006651256
80	0xbd27aa86	-0.04093411
81	0xbc7c263c	-0.015389975
82	0x3bd005e8	0.0063483603
83	0xbbd9fe83	-0.0066526546
84	0xbcd201c5	-0.02563561
85	0xbd5f1cb3	-0.05447073
86	0xbd1b03fc	-0.037845597
87	0x3d087b46	0.033320688
88	0x3bee676e	0.0072755134
89	0xbcd58103	-0.026062494
90	0x3cdc3610	0.026881248
91	0xbd120c27	-0.03565612
92	0xbc4190d3	-0.011814314
93	0x3d074c47	0.033031728
94	0xbd6b20cf	-0.057404336
95	0xbd1ea410	-0.03873068
96	0xbd0ea5cf	-0.034826096
97	0x3d43b335	0.047778327
98	0x3c09cd32	0.008410739
99	0xbc62e698	-0.013848923
100	0x3c7bf2a8	0.015377678
101	0x3d26fa48	0.04076603
102	0x3cd4c8ed	0.025974715
103	0x3d6e7992	0.058221407
104	0xbd12fec8	-0.03588751
105	0xbc122d6b	-0.008921961
106	0x3d43ca39	0.047800276
107	0xbb75b01e	-0.0037489007
108	0xbd70a78f	-0.058753546
109	0xbcae76c9	-0.021296876
110	0xbd6f6c76	-0.058453046
111	0xbd88af4b	-0.066740595
112	0xbcffb403	-0.031213766
113	0x3d3e30e6	0.046433352
114	0x3a3f3e99	0.00072953996
115	0xbc7ba4be	-0.015359102
116	0xbd85afcf	-0.065276735
117	0xbd297a84	-0.041376606
118	0x3ce74ed9	0.02823584
119	0x3c56217b	0.013069506
120	0xbd138d71	-0.03602356
121	0xbc27c3cb	-0.010239552
122	0xbd61657f	-0.055028435
123	0xbd1f2c9a	-0.038860895
124	0xbd5ecd76	-0.05439516
125	0x3ca3ca36	0.019993883
126	0x3d55f61d	0.052236665
127	0xbd27590e	-0.040856414
128	0x3b8609a3	0.0040905043
129	0x3cafdb2f	0.02146682
130	0xbb55b8c9	-0.0032611361
131	0x3c988e76	0.018622618
132	0x3b3e87d9	0.002907267
133	0x3d032d82	0.03202582
134	0xbccdaa32	-0.02510557
135	0xbd6851b4	-0.056718543
136	0x3b8af452	0.004240551
137	0xbb87a40c	-0.004139429
138	0x3cf35848	0.029705182
139	0xbcfe67c7	-0.031055344
140	0x3cbb03fc	0.022829048
141	0xbd6f3989	-0.05840448
142	0xbc4208ef	-0.01184295
143	0xbd085e34	-0.033292964
144	0x3d0986e7	0.03357592
145	0xbd4a2c5b	-0.049358707
146	0x3c59b256	0.0132871475
147	0x3cd77fa5	0.026305983
148	0x3cf37629	0.02971943
149	0x3d5ad189	0.053422485
150	0xbbe1fd25	-0.0068966323
151	0x3d01751b	0.03160582
152	0xbc9a8d0d	-0.018866086
153	0xbcf92d18	-0.03041701
154	0xbcc1bbca	-0.023649115
155	0x3caf3f9e	0.02139264
156	0x3d16b372	0.036792226
157	0xbcfdeb39	-0.030995952
158	0x3d656bce	0.056011014
159	0xbc9ead8b	-0.019369861
160	0x3d1ba6b1	0.038000766
161	0xbc77dd60	-0.0151284635
162	0xbd08a49b	-0.033360105
163	0x3c1d070c	0.0095842
164	0x3c4ddfb1	0.012565539
165	0x3d2519eb	0.04030792
166	0x3d15a052	0.036529846
167	0x3d2180c2	0.039429434
168	0x3cd204b0	0.025637
169	0x3d0ae504	0.033909813
170	0x3ccdce5f	0.02512282
171	0xbd0fc73c	-0.035102114
172	0xbd1e1d20	-0.038601995
173	0xbd4bf781	-0.049796585
174	0x3d5b1a2b	0.053491753
175	0x3d2c0a2e	0.042001896
176	0x3cf43460	0.02981013
177	0xbd05375c	-0.032523498
178	0x3cf714e6	0.030161332
179	0x3ba48b40	0.0050214827
180	0x3d3566e9	0.044287596
181	0xbd29ee26	-0.04148688
182	0x3d70d0fb	0.05879305
183	0x3cdf2009	0.027236955
184	0xbbea5df5	-0.007152314
185	0x3d414784	0.047187343
186	0x3d0d8068	0.034546286
187	0x3d05e349	0.03268746
188	0xbc5858af	-0.013204738
189	0xbd59cc11	-0.05317313
190	0xbcd9a6ed	-0.026568854
191	0x3d710610	0.058843672
192	0xbc7ecf92	-0.015552418
193	0xbd6624c1	-0.056187395
194	0xbd033536	-0.032033168
195	0x3d4ac9cd	0.04950886
196	0xbc780862	-0.015138717
197	0xbce531f8	-0.027977929
198	0xbb7db29f	-0.0038711203
199	0x3c56bfe4	0.013107274
200	0x3c51c7f5	0.012804021
201	0x3b143d0e	0.00226194
202	0xbd632839	-0.05545828
203	0xbd14c467	-0.036320116
204	0x3d029463	0.031879794
205	0xba9aed0b	-0.0011819912
206	0xbd588208	-0.052858382
207	0x3c1ef81b	0.009702708
208	0x3ce8261e	0.028338488
209	0xbcc1e06f	-0.023666589
210	0x3d6de441	0.058079008
211	0x3d66a075	0.056305367
212	0xbc1f0911	-0.009706751
213	0xbc99e37e	-0.018785235
214	0xbd5a8b95	-0.053355772
215	0xbd885dde	-0.06658529
216	0xbd48c2fa	-0.04901407
217	0xbd016f2a	-0.031600155
218	0xbb853dce	-0.0040662056
219	0x3cec53d9	0.028848575
220	0x3d1d58ef	0.03841489
221	0xbd45a3b2	-0.048251815
222	0x3d20a570	0.039220273
223	0x3d6b1c39	0.057399962
224	0xbc5a2d2a	-0.013316432
225	0x3d630b9a	0.055430986
226	0x3cd141d6	0.025544088
227	0x3d054e84	0.03254558
228	0x3b9046ad	0.0044029565
229	0xbd0355a5	-0.0320641
230	0x3cf6a12c	0.03010615
231	0xbd84ce51	-0.06484664
232	0x3bb20be1	0.005433545
233	0xbbe8b62d	-0.007101795
234	0xbd639c70	-0.055569112
235	0x3aae633c	0.0013304721
236	0xbd5dfb81	-0.05419493
237	0x3d044ab9	0.032297824
238	0x3c9f7759	0.01946609
239	0xbd04b558	-0.032399505
240	0x3c03dfb0	0.008048937
241	0xbd4968d8	-0.049172252
242	0x3c35e76e	0.01110254
243	0xba92addd	-0.0011190731
244	0xbd6e4f1a	-0.058180906
245	0xbd53c0d6	-0.051697575
246	0xbc0b7d19	-0.008513712
247	0xbc85beec	-0.01632639
248	0x3d1f4582	0.038884647
249	0xbd503645	-0.050833005
250	0x3d70508b	0.05867056
251	0xbb94c143	-0.00453964
252	0x3d650bff	0.055919643
253	0x3d5525ec	0.05203812
254	0xbd256c41	-0.040386442
255	0x3cdc11b6	0.026863914

layers.0.bias f4 [64]
0	0xbcc91016	-0.024543803
1	0xbca287a8	-0.019840077
2	0x3d77670f	0.06040102
3	0xbbff8c1e	-0.0077986857
4	0x3d0a339e	0.033740632
5	0x3c0e1a7c	0.008673307
6	0x3d11440c	0.035465285
7	0x3c3a01a0	0.0113529265
8	0x3c8a5f6c	0.016891204
9	0x3d13ce8d	0.036085654
10	0xbce59e44	-0.028029568
11	0xbd047692	-0.03233964
12	0x3d1bde86	0.03805401
13	0xbd82a25e	-0.06378625
14	0x3c8de231	0.01731977
15	0xbd22fb42	-0.0397904
16	0xbce179b4	-0.027523853
17	0xbb16f576	-0.002303449
18	0x3cce5fe0	0.025192201
19	0xbd44cf88	-0.04804948
20	0x3d7e8aff	0.062144276
21	0x3bec27c2	0.007206888
22	0xbd836982	-0.064166084
23	0x3cdda24c	0.027054928
24	0x3d1ad3ed	0.037799764
25	0x3d2741c6	0.04083421
26	0x3d1979b2	0.037469573
27	0x3d4586b4	0.048224166
28	0x3d44794d	0.047967244
29	0xbd0895ae	-0.03334587
30	0x3ba82bee	0.00513219
31	0x3c8bf597	0.01708488
32	0xbc9c3cda	-0.019071985
33	0x3d769d18	0.06020841
34	0xbc82b9aa	-0.015957672
35	0x3adc9611	0.0016829391
36	0x3d11b0cc	0.035568997
37	0x3d1772e3	0.0369748
38	0x3d8208a0	0.06349301
39	0xbd1a9b38	-0.037745684
40	0x3cc7e672	0.024401877
41	0x3d0a62ad	0.03378551
42	0x3d134b03	0.03596021
43	0xbccf5883	-0.02531076
44	0x3b51602b	0.003194819
45	0xbd65fff6	-0.056152306
46	0x3d3a24fc	0.045445427
47	0xbd66609e	-0.056244485
48	0x3d3bd49b	0.045857053
49	0x3cbc6449	0.022997038
50	0x3c386056	0.011253437
51	0xbcf4c471	-0.029878827
52	0x3d7813ea	0.060565867
53	0xbc91e941	-0.01781142
54	0xbd0e4f4c	-0.034743592
55	0x3d23ce0f	0.039991435
56	0xbd66a7e1	-0.056312446
57	0xbbf5634a	-0.007488643
58	0x3d2a052a	0.04150883
59	0x3d27f845	0.041008253
60	0xbd149cad	-0.03628223
61	0x3d40c32d	0.047061134
62	0x3cddc4c8	0.027071372
63	0x3cc9df12	0.024642501

layers.2.weight f4 [32, 64, 1, 1]
0	0xbd7f8ad8	-0.06238827
1	0xbdde082d	-0.10841403
2	0x3dceb829	0.100937195
3	0xbdc6eecc	-0.09713516
4	0xbdbcc706	-0.09217648
5	0xbde2f408	-0.110817015
6	0xbdbc92b9	-0.092076726
7	0xbcf7ccff	-0.030249117
8	0xbcb90599	-0.022585677
9	0x3e003a95	0.12522347
10	0xbdbadd17	-0.09124201
11	0xbc8a66df	-0.016894756
12	0xbdf572ef	-0.119848125
13	0xbdd799fc	-0.10527417
14	0xbd9b026d	-0.07568822
15	0x3db3d5ba	0.087809995
16	0xbd20afb9	-0.039230082
17	0x3d78807d	0.06066941
18	0xbd2c8e68	-0.042127997
19	0xbd8723da	-0.06598635
20	0xbd200901	-0.039071087
21	0xbdd2c1d3	-0.10290875
22	0xbd9e3943	-0.077257656
23	0x3ce1bcad	0.027555788
24	0xbd8e5cc2	-0.06951286
25	0x3dfa85ab	0.122325264
26	0x3dea19a6	0.11430673
27	0x3d7fecd0	0.0624817
28	0x3d3f7c24	0.04674925
29	0x3de71648	0.11283547
30	0xbb093de0	-0.0020941421
31	0x3d626b7a	0.05527828
32	0xbb74b2fe	-0.0037338133
33	0x3dd57373	0.10422411
34	0xbd933450	-0.07187712
35	0xbd47d60e	-0.048788123
36	0x3dc0a334	0.094061285
37	0xbd5673ad	-0.05235641
38	0xbd17a747	-0.037024762
39	0xbd2df59c	-0.04247056
40	0xbd3e1256	-0.046404205
41	0x3dc1c760	0.09461856
42	0x3df20497	0.11817282
43	0xbd59da04	-0.05318643
44	0xbde5a5d8	-0.11213273
45	0x3d99de0b	0.075130545
46	0xbcaf96d2	-0.021434221
47	0x3de25f9f	0.110533945
48	0xbbcedce9	-0.0063129556
49	0xbd4bfa8f	-0.0497995
50	0xbcb31f9e	-0.021865662
51	0x3c42a297	0.011879585
52	0xbddbc248	-0.107304156
53	0x3d9fc508	0.078012526
54	0x3da7fb67	0.08202248
55	0xbd17076a	-0.036872305
56	0xbcf0e883	-0.029407745
57	0x3de1608b	0.11004742
58	0xbbdad9ff	-0.006678819
59	0x3d6474fc	0.055775627
60	0xbdfc6fb1	-0.12325991
61	0x3cb3d223	0.021950787
62	0x3dc5c72a	0.09657128
63	0x3dde6835	0.1085972
64	0xbdc171a8	-0.09445506
65	0xbd833b5c	-0.06407806
66	0xbd4f21c4	-0.05056931
67	0x3db18c90	0.08669388
68	0x3c543251	0.0129514495
69	0xbd8fe05d	-0.07025216
70	0x3cdaa4bb	0.026689878
71	0xbdd3e343	-0.10346081
72	0xbd5baa9c	-0.053629503
73	0x3da42d8f	0.08016502
74	0x3de1861a	0.11011906
75	0xbda7c58e	-0.081919774
76	0xbc5d0815	-0.013490696
77	0xbd6a1eb1	-0.057158176
78	0x3c2913dc	0.010319676
79	0xbd492937	-0.04911157
80	0x3d0b3da3	0.03399433
81	0x3bb5d7dd	0.0055494145
82	0xbcac27f2	-0.021015141
83	0xbd293ef3	-0.0413198
84	0x3d120698	0.03565082
85	0x3d36f434	0.044666484
86	0x3d656ff8	0.056014985
87	0xbc9445c0	-0.018099666
88	0xbd97285f	-0.07380747
89	0xbdb90949	-0.09034974
90	0xbd3369b6	-0.043801986
91	0x3d615b6c	0.055018827
92	0x3dfc29a1	0.123126276
93	0xbdddd9e0	-0.10832572
94	0x3d8f58ea	0.06999381
95	0xbdf44b6f	-0.1192845
96	0xbdd769a7	-0.105181985
97	0x3cb59b03	0.022168642
98	0xbdcb2196	-0.099185154
99	0xbd0a635f	-0.033786174
100	0xbd19310c	-0.03740029
101	0x3d76b9b7	0.060235705
102	0x3df349e8	0.11879331
103	0xbcb6584e	-0.022258904
104	0x3da129ad	0.07869277
105	0x3da5f2c1	0.08102942
106	0x3dc7dfec	0.097595066
107	0x3d84c98d	0.06483755
108	0xbd339368	-0.04384175
109	0x3d28efb9	0.041244242
110	0xbcdd7e78	-0.027037844
111	0x3d67e342	0.056613214
112	0xbd8c9edf	-0.0686624
113	0xbdd0706e	-0.10177694
114	0xbd85748e	-0.06516372
115	0x3dbd886f	0.09254538
116	0x396dcee5	0.00022679156
117	0x3c5a18d0	0.01331158
118	0xbdeab438	-0.11460155
119	0xbdafbde1	-0.085811384
120	0x3dae7241	0.08517886
121	0x3d28fff5	0.041259725
122	0x3e01bab3	0.12668876
123	0x3d9635bc	0.07334468
124	0x3cf9f833	0.030513858
125	0x3dd98040	0.10620165
126	0xbcafa0c9	-0.021438973
127	0xbb7ef615	-0.0038904
128	0xbd9940ab	-0.074830376
129	0x3d3f6899	0.04673061
130	0xbd03bbe0	-0.032161593
131	0xbdef0864	-0.11671522
132	0xbdc24734	-0.09486237
133	0x3d95d686	0.07316308
134	0x3dab1fdf	0.08355688
135	0xbdb94c24	-0.09047726
136	0xbcec2587	-0.028826488
137	0xbda4e8e1	-0.080522306
138	0x3d468e4c	0.04847555
139	0xbe00c8aa	-0.12576547
140	0x3dd5f562	0.10447194
141	0xbdf4af1f	-0.11947464
142	0xbdd12d1e	-0.102136835
143	0x3d4fe541	0.050755743
144	0xbdeea8a7	-0.11653262
145	0xbbd9bf17	-0.006645094
146	0xbca2d0cc	-0.019874953
147	0x3cd8b36c	0.026452743
148	0x3dfc7d4b	0.12328585
149	0x3db9e3af	0.0907663
150	0xbd30a8c7	-0.04312971
151	0x3d8ffb4d	0.07030354
152	0xbbb70463	-0.0055852397
153	0x3dba03ee	0.09082781
154	0x3da740c5	0.08166651
155	0xbd0ad6be	-0.0338962
156	0x3d88df3a	0.06683202
157	0x3ca53c8d	0.020170474
158	0xbd4f48b7	-0.050606456
159	0x3cb92f08	0.022605434
160	0x3ce39d87	0.027785076
161	0x3d8a1420	0.0674212
162	0xbdf44097	-0.11926382
163	0x3d6df0f0	0.058091104
164	0xbdf3387a	-0.118760064
165	0x3dfc94c5	0.12333063
166	0x3c6698a5	0.014074479
167	0xbd9e8091	-0.07739366
168	0x3c7b87fb	0.0153522445
169	0x3dee0578	0.11622137
170	0x3d8ecf46	0.06973128
171	0x3cde8769	0.027164178
172	0xbdc322ea	-0.09528144
173	0x3ceef899	0.029171275
174	0xbbdb322b	-0.00668933
175	0xbd62eaf4	-0.05539985
176	0xbc790abf	-0.015200316
177	0x3ddf89cf	0.10914957
178	0xbdaad407	-0.08341222
179	0x3d0d7582	0.034535892
180	0x3d41dbc4	0.047328725
181	0x3d83b737	0.0643143
182	0x3d82326f	0.06357276
183	0xbdecc96d	-0.115618564
184	0xbde9c4aa	-0.11414464
185	0xbc8efe31	-0.017455192
186	0xbd4e0bf3	-0.050304364
187	0xbdaaed45	-0.08346037
188	0xbd9076d8	-0.07053918
189	0x3d1b5e15	0.03793152
190	0xbdeeaaa8	-0.11653644
191	0xbdcd25a9	-0.10016949
192	0xbd8ab69a	-0.0677311
193	0xbd668640	-0.056280375
194	0x3de8e243	0.11371281
195	0x3d71a0dd	0.0589913
196	0xbd7c794c	-0.061639115
197	0xbda016e0	-0.07816863
198	0xbc78c0b0	-0.015182659
199	0x3d423a97	0.047419157
200	0x3d2c1491	0.0420118
201	0x3d7da353	0.061923336
202	0x3dbc9e7b	0.09209915
203	0x3bc34e3a	0.005960253
204	0xbddec9b2	-0.10878314
205	0xbdf7a06f	-0.12091147
206	0x3deb24b8	0.11481613
207	0xbdcd40da	-0.10022135
208	0xbda75cb1	-0.08171976
209	0x3df0f8e3	0.117662214
210	0xbc4e2fa2	-0.012584599
211	0x3dc4a2fd	0.096014
212	0x3c80dd27	0.015730454
213	0xbcb27253	-0.02178303
214	0x3d00ead6	0.031473957
215	0xbdd79979	-0.105273195
216	0x3db00eb2	0.08596553
217	0xbd7fa2ab	-0.06241099
218	0x3d63667c	0.05551766
219	0x3db6a73a	0.08918615
220	0x3c8e10b1	0.017341943
221	0x3d954567	0.07288628
222	0xbd5f6bcf	-0.054546174
223	0xbde54b11	-0.111959584
224	0x3d8d02ee	0.068853244
225	0xbc20ddb6	-0.009818485
226	0x3dda2806	0.10652165
227	0xbb9ee1ac	-0.0048486795
228	0xbd88aa83	-0.066731475
229	0xbdad63c3	-0.08466294
230	0x3ce519cf	0.027966408
231	0xbda8933a	-0.08231206
232	0xbd9b87ea	-0.07594283
233	0xbdc771c6	-0.097384974
234	0xbd0e1ba2	-0.03469432
235	0x3d890c8b	0.066918455
236	0xbc808a20	-0.015690863
237	0x3e0324f8	0.12807071
238	0x3df7204d	0.12066708
239	0xbdc38e3b	-0.09548613
240	0xbc66a852	-0.014078217
241	0xbc72072d	-0.014772219
242	0x3db36c2c	0.087608665
243	0x3de9b877	0.11412137
244	0x3de51c63	0.11187055
245	0x3c3ecaf9	0.011645072
246	0xbde90f88	-0.113799155
247	0x3b9e5a50	0.0048325434
248	0xbd968f4d	-0.07351551
249	0x3db81f66	0.08990364
250	0xbd3a8169	-0.04553357
251	0x3d39d840	0.045372248
252	0xbd53fa12	-0.051752158
253	0xbcb35894	-0.021892823
254	0x3d99edd8	0.07516068
255	0xbdbc06e7	-0.09181004

layers.2.bias f4 [32]
0	0x3d9cb628	0.07651931
1	0x3c07e7e4	0.008295033
2	0x3d2f3a5d	0.04278027
3	0xbd74c7fe	-0.05976104
4	0xbca8cd09	-0.02060558
5	0xbda50bfd	-0.08058927
6	0x3da77b0d	0.08177767
7	0x3dd5193c	0.10405204
8	0xbde29680	-0.11063862
9	0xbc67d616	-0.014150163
10	0x3dbd98a6	0.09257631
11	0xbd749ccb	-0.059719842
12	0xbd39343b	-0.045215826
13	0xbd67cc99	-0.056591604
14	0x3df14303	0.117803596
15	0xbdd29f77	-0.10284322
16	0xbdffc9b3	-0.12489643
17	0xbda5db86	-0.080985114
18	0xbde17fcf	-0.11010706
19	0x3deb75b8	0.114970624
20	0xbd851261	-0.06497646
21	0xbde4ee1c	-0.11178228
22	0x3d5df8e6	0.054192446
23	0xbd9f7a47	-0.077869944
24	0x3c7fea9b	0.015619899
25	0x3d369767	0.044577982
26	0x3d4bf3fb	0.049793225
27	0x3d1fd111	0.03901774
28	0x3caf1dca	0.02137651
29	0xbd8cc673	-0.06873789
30	0xbc1ba51d	-0.009499815
31	0xbc225440	-0.009907782

layers.4.weight f4 [3, 32, 5, 5]
0	0xbc8f1420	-0.017465651
1	0xbd00e8ed	-0.031472135
2	0x3c1bb3cd	0.009503317
3	0x3c8c8960	0.01715535
4	0x3c82b329	0.01595457
5	0x3d0f33f6	0.034961663
6	0xbcada4c9	-0.02119674
7	0xbcaad7ea	-0.020854909
8	0x3d0a2db9	0.03373501
9	0xbcc5e9e4	-0.02415938
10	0x3c6366f0	0.013879523
11	0xbd028890	-0.031868517
12	0x3b89adfe	0.0042016497
13	0x3b67bc5a	0.003536007
14	0xbb8f79db	-0.00437854
15	0xbcd2d259	-0.025735067
16	0x3b8600d2	0.0040894533
17	0x3ba24570	0.0049521253
18	0x3cce213e	0.025162335
19	0x3cc65acc	0.024213217
20	0xbc5c43fa	-0.013443941
21	0xbc3dec7b	-0.011592026
22	0x3c493a36	0.012281945
23	0x3b793f0e	0.0038031968
24	0x3d08d726	0.033408307
25	0x3cdf2185	0.027237663
26	0xbc5c3991	-0.013441459
27	0x3be6ecb6	0.007047261
28	0xbc870fee	-0.016487088
29	0xbc865172	-0.016396258
30	0x3cae4ec6	0.021277796
31	0x3cd7fa03	0.026364332
32	0x3d115359	0.035479877
33	0x3d081988	0.033227473
34	0xbcdba465	-0.026811788
35	0xbd03c585	-0.03217079
36	0x3d01d81e	0.031700246
37	0xbc59223c	-0.013252791
38	0x3d1ceb70	0.03831047
39	0x3bca2ef4	0.006170148
40	0x3c3f0c1f	0.011660605
41	0x3b13a525	0.0022528854
42	0xbc3324e3	-0.010934087
43	0xbcc769a0	-0.024342358
44	0x3cb686e2	0.022281114
45	0x3cd30876	0.02576087
46	0x3c341e3b	0.010993536
47	0xbca52c01	-0.020162584
48	0x3cb2b1da	0.021813322
49	0x3bce9c21	0.006305233
50	0xbcbaf74a	-0.022822995
51	0x3d16d57f	0.0368247
52	0x3c558a68	0.013033487
53	0x3c5db384	0.013531569
54	0x3ced6b3a	0.028981794
55	0xbc054cb7	-0.008135966
56	0x3c9fcc40	0.019506574
57	0x3c5391c2	0.012913169
58	0xbcaf3a03	-0.021389967
59	0xbcb8fbeb	-0.022581061
60	0xbc9e252a	-0.01930483
61	0x3c5c0fe0	0.013431519
62	0x3ca7fe42	0.020506982
63	0xbcbd1f5a	-0.023086239
64	0x3c79aa6d	0.015238387
65	0x3b8fd558	0.004389446
66	0x393a947a	0.00017793654
67	0xbb2c9afb	-0.0026337493
68	0xbc7fcf5a	-0.015613401
69	0xbce8fb60	-0.028440177
70	0x3ca57192	0.020195756
71	0x3c6df3c2	0.014523448
72	0xbc81664c	-0.01579585
73	0x3d07a488	0.033115894
74	0xbb194e31	-0.0023392553
75	0x3bd1193d	0.0063811825
76	0x3afbbaad	0.0019205414
77	0xbcabe509	-0.020983236
78	0x3c118e7f	0.008884071
79	0xbcca6740	-0.024707437
80	0xbbfb1885	-0.007662835
81	0x3d03ea4d	0.03220587
82	0xbb669d60	-0.0035189018
83	0x3cfc71df	0.030816017
84	0x3d0f3cdc	0.03497015
85	0xbbc09280	-0.005876839
86	0xbcd3997d	-0.025830025
87	0xbb6d87e9	-0.003624434
88	0x3cd1424b	0.025544306
89	0x3c77d942	0.015127482
90	0x3cc5ecf2	0.024160836
91	0xbd013c47	-0.031551626
92	0x3d0e95e5	0.03481092
93	0xbcb3a8d1	-0.021931084
94	0xbcc6e20f	-0.024277715
95	0xbc2d695e	-0.0105842035
96	0x3cd54ff6	0.026039105
97	0x3cee5136	0.029091459
98	0xbc8c0535	-0.017092327
99	0x3cdae664	0.026721187
100	0x3d1603eb	0.03662483
101	0x3cdfdbf8	0.027326569
102	0x3b30a30e	0.0026952657
103	0xbcb58316	-0.022157233
104	0x3c20a3d5	0.009804686
105	0xbcaafbfd	-0.02087211
106	0xbcbcf021	-0.023063721
107	0x3d0c0f7d	0.03419446
108	0x3a09abde	0.00052517455
109	0xbbfe8573	-0.007767373
110	0xbc9d5f1f	-0.019210396
111	0xbbeff043	-0.0073223426
112	0xbc02c484	-0.007981423
113	0xbcafa5b6	-0.021441322
114	0x396f6e23	0.00022833845
115	0x3c2b20f7	0.010444871
116	0x3d159bd9	0.03652558
117	0x3c2f8c6b	0.010714631
118	0x3d008709	0.03137878
119	0x3c257f32	0.0101011265
120	0x3cc19d37	0.023634536
121	0xbcc5b13b	-0.024132362
122	0xbcb142ca	-0.021638293
123	0xba97fa96	-0.0011595066
124	0xbc9a14f6	-0.018808823
125	0xbc942b19	-0.018086957
126	0x3c95f249	0.018304007
127	0x3c9e2a75	0.019307354
128	0x3cb3c9ad	0.021946752
129	0x3d0c30c6	0.0342262
130	0xbc5dbadf	-0.013533323
131	0x3cb748da	0.022373606
132	0x3cf208cc	0.02954521
133	0xbc803a62	-0.01565284
134	0x3cd6fcb9	0.026243554
135	0x3ceffefc	0.02929639
136	0xbd02cbe8	-0.03193274
137	0x3c94facc	0.018185996
138	0xbcb9205d	-0.02259844
139	0xbccbe457	-0.024889154
140	0xbcba6dad	-0.022757376
141	0x3ca25699	0.019816684
142	0xbcc0aeaf	-0.023520796
143	0xbc7ab47d	-0.015301821
144	0x3cbc318b	0.022972843
145	0xbca12ced	-0.019674743
146	0x3aa90d76	0.0012897688
147	0x3cea3867	0.028591348
148	0x3c17fe22	0.009276899
149	0x3c10de98	0.008842133
150	0x3c6d040d	0.014466298
151	0xba79c3c6	-0.00095277687
152	0xbcfada32	-0.030621622
153	0x3c29cc63	0.010363671
154	0x3d0201b4	0.031739905
155	0x3cb8623e	0.022507783
156	0x3c621726	0.013799464
157	0x3d039ff3	0.03213496
158	0xbcca7666	-0.02471466
159	0x3d0f16fa	0.03493402
160	0xbac7d2fa	-0.0015245371
161	0xbc677d0c	-0.014128935
162	0xbc906355	-0.01762549
163	0xbccc6a87	-0.02495314
164	0x3b955858	0.0045576505
165	0x3cfea599	0.031084822
166	0x3c6517eb	0.013982753
167	0x3d0430a2	0.032272942
168	0x3caad597	0.0208538
169	0x3b623692	0.003451739
170	0x3bb960f7	0.005657311
171	0xbc81900e	-0.015815761
172	0xbc34f55a	-0.0110448245
173	0xbc7ad84f	-0.015310361
174	0x3cecbc9b	0.028898528
175	0x3b82a060	0.0039864033
176	0x3c21b294	0.0098692365
177	0xbca85371	-0.0205476
178	0x3cc0a812	0.023517642
179	0x3b2c78ca	0.0026317113
180	0xbc7cb2c8	-0.015423484
181	0x3c4de65c	0.012567129
182	0xbc28415a	-0.010269487
183	0xbb60adb3	-0.003428322
184	0xbcba68de	-0.022755083
185	0xbcd01a8c	-0.025403284
186	0x3d0d2e7d	0.034468163
187	0xbc36166f	-0.011113747
188	0x3cc4ef53	0.0240399
189	0xbcb00956	-0.021488827
190	0x3c8ce7ab	0.017200312
191	0xbcd3fe36	-0.025878053
192	0x3cb1c7f2	0.021701787
193	0xbb6831e3	-0.0035430125
194	0xbba248c0	-0.00495252
195	0xbbe2f6fd	-0.006926416
196	0x3c8575ef	0.016291587
197	0xbc006243	-0.007835927
198	0xbcf797ab	-0.030223688
199	0xbccff39b	-0.025384715
200	0x3d0b7b96	0.034053408
201	0x3a3f756e	0.000730357
202	0x3c55a79d	0.01304045
203	0x3cb23e67	0.021758271
204	0x3c82c587	0.015963329
205	0xbbb85643	-0.0056255176
206	0x3bbab521	0.005697862
207	0x3b6f63af	0.0036527922
208	0xbc10bc22	-0.008833917
209	0x3cac0a5e	0.021001037
210	0x3cfec236	0.031098466
211	0xbcd594be	-0.026071902
212	0x3cf060d4	0.029343046
213	0xbcde8443	-0.027162677
214	0x3cfd80dc	0.030945234
215	0xbbf061fb	-0.007335899
216	0x3cc3e920	0.023914874
217	0xbc31e8a3	-0.010858688
218	0x3cc4378b	0.023952266
219	0x3cc19c5f	0.023634134
220	0x3c1e474d	0.009660554
221	0x3c08fe0c	0.008361351
222	0xbc92074c	-0.017825745
223	0xbc98a431	-0.01863298
224	0x3c72aed4	0.01481219
225	0xbd0a151c	-0.033711538
226	0x3d049df8	0.032377213
227	0xbcad56fe	-0.021159645
228	0x3ba67143	0.00507942
229	0xbc92d3d8	-0.01792328
230	0xbd017beb	-0.031612318
231	0x3b3cfc8b	0.002883705
232	0x3b5f0f38	0.003403617
233	0x3d04cc71	0.032421533
234	0xbc5f112c	-0.013614934
235	0x3d0860f5	0.03329559
236	0x3c79d3bb	0.015248234
237	0x3aa86028	0.001284604
238	0xbbcab011	-0.0061855395
239	0x3ce99f78	0.028518423
240	0x3cc9c8bb	0.024631849
241	0x3c21a4d7	0.009865961
242	0x3c815882	0.015789274
243	0xbcdb1018	-0.026741073
244	0xbd095bbe	-0.033534758
245	0x3a099f13	0.0005249839
246	0x3c82521c	0.015908293
247	0xbc1d4ead	-0.009601277
248	0x3c7e1b58	0.015509449
249	0x3cf0df49	0.029403346
250	0xbc859cb9	-0.016310083
251	0x3c1df7c9	0.009641596
252	0x3d06cf77	0.032912698
253	0x3c744bfb	0.014910693
254	0x3af66874	0.001879944
255	0x3cf4719f	0.029839335

layers.4.bias f4 [3]
0	0x3cc27713	0.02373842
1	0x3c896d8b	0.016775867
2	0xbcdd8f3f	-0.027045844
